Backend/data.pth (torch, 5610 bytes, 6 tensors)

l1.weight f4 [8, 57]
0	0xbedadda7	-0.42747232
1	0x3c6f3490	0.014599934
2	0x3e4cbbf2	0.1999357
3	0x3f071c5e	0.5277766
4	0x3ed923af	0.42410037
5	0x3f20197c	0.62538886
6	0xbe7a4b2d	-0.2444274
7	0x3ebd2100	0.3693924
8	0x3eba7451	0.36416867
9	0x3f21e990	0.63247013
10	0x3f00f093	0.5036709
11	0xbe0301b2	-0.12793615
12	0xbe10af68	-0.14129412
13	0x3e0dabe1	0.13835098
14	0x3de49159	0.11160535
15	0xbd8f299f	-0.069903605
16	0x3eed2c2e	0.4632277
17	0xbe80d550	-0.25162745
18	0x3e3f5dff	0.186882
19	0x3d8fb82b	0.07017549
20	0x3c258501	0.010102511
21	0xbe7abfdb	-0.2448725
22	0xbe87161b	-0.26384053
23	0x3e87f76d	0.26555958
24	0xbf474f09	-0.77854973
25	0x3f1b4a82	0.60660565
26	0x3e07c4f6	0.13258728
27	0x3e90162e	0.28141922
28	0x3f2dc7c0	0.6788292
29	0x3ef82e4d	0.48472825
30	0x3dd4d53d	0.103922345
31	0xbdea1b58	-0.11430997
32	0x3da72c39	0.08162732
33	0xbeb398d2	-0.3507753
34	0x3d40df60	0.047088027
35	0xbcb95d0a	-0.022627372
36	0x3e364595	0.17799981
37	0xbe288b12	-0.16459301
38	0xbe3c294c	-0.18375129
39	0x3d266c16	0.040630423
40	0xbe9a6988	-0.3015864
41	0xbeb03c47	-0.34420988
42	0x3d422ffa	0.047409035
43	0x3f032a86	0.5123676
44	0xbdc6562c	-0.09684405
45	0x3eaf6314	0.34255278
46	0x3e7c9add	0.2466845
47	0xbe0f26bc	-0.1397962
48	0xbe421956	-0.18954977
49	0xbd77c52e	-0.06049078
50	0x3f00ff82	0.50389874
51	0xbe89f55f	-0.26945016
52	0x3dd13b78	0.10216421
53	0xbede36ac	-0.43401086
54	0x3f0e9404	0.55694604
55	0x3f14e60f	0.5816354
56	0xbdd86b2d	-0.10567317
57	0xbe94d122	-0.29065806
58	0x3f3c044d	0.7344406
59	0xbdd634b1	-0.10459269
60	0xbe6884f0	-0.22706962
61	0xbe94d84f	-0.2907128
62	0xb9a7f4f6	-0.00032035232
63	0x3ec05ed8	0.3757236
64	0xbe9cd879	-0.30633906
65	0xbedadbc9	-0.42745808
66	0xbd931f31	-0.07183684
67	0xbeb316cc	-0.3497833
68	0xbdc3d837	-0.09562724
69	0xbdcb7f47	-0.099363856
70	0xbde5a533	-0.1121315
71	0x3d76f27f	0.060289856
72	0x3e556f68	0.2084328
73	0xbe756f45	-0.23968227
74	0x3d7a9691	0.061178748
75	0x3d64425f	0.05572736
76	0x3d631dce	0.055448346
77	0xbda81ab5	-0.08208219
78	0x3ec68626	0.38774222
79	0x3f194f8a	0.5988699
80	0xbea27599	-0.31730345
81	0x3f6bdb1e	0.9213122
82	0xbe467564	-0.19380718
83	0x3ee5bcd2	0.4487062
84	0xbe8b35a7	-0.2718937
85	0xbf201b02	-0.6254121
86	0xbf2ac18d	-0.66701585
87	0xbdca393b	-0.09874197
88	0x3e9b6fa3	0.3035861
89	0x3f278b8e	0.6544732
90	0xbe992de4	-0.29917824
91	0x3c28b6b2	0.010297464
92	0x3ef0d364	0.47036278
93	0x3ee8b561	0.4545088
94	0xbdbe450e	-0.09290515
95	0xbe389221	-0.18024494
96	0xbd87797a	-0.06614967
97	0xbdcbd136	-0.09952013
98	0x3f204de5	0.6261886
99	0xbc9561cd	-0.018235112
100	0xbe4526ef	-0.19253133
101	0xbdc650f2	-0.09683408
102	0xbeb8b47b	-0.36075196
103	0xbe01e5a8	-0.12685263
104	0xbe52e6bb	-0.20595829
105	0x3ece74c3	0.40323457
106	0x3ed1999d	0.4093751
107	0xbe110243	-0.14161019
108	0x3ef463e3	0.47732458
109	0x3f234273	0.6377327
110	0x3edb4d38	0.4283235
111	0xbd9c86ac	-0.07642874
112	0xbe04b84d	-0.1296093
113	0x3f0be9a1	0.54653364
114	0xbd49c600	-0.049261093
115	0x3ece9cd0	0.40354013
116	0xbe3e2b8a	-0.18571296
117	0x3e3ce57d	0.18446918
118	0xbe7c7dff	-0.24657439
119	0x3e0f968b	0.14022271
120	0xbe5c6d98	-0.21526182
121	0xbebcc6e1	-0.36870483
122	0xbed56189	-0.41675976
123	0x3df234b0	0.118264556
124	0xbea6d905	-0.32587448
125	0x3d265fa8	0.04061857
126	0xbc6d8fba	-0.014499599
127	0xbe5352cf	-0.20637058
128	0xbe824760	-0.2544508
129	0x3cec15e8	0.02881904
130	0xbeaf0202	-0.3418122
131	0x3da05a23	0.07829692
132	0xbdd268da	-0.10273905
133	0xbd81fd8d	-0.06347189
134	0xbd54bf09	-0.051939998
135	0x3f36821e	0.71292293
136	0x3f40ba3e	0.75284183
137	0xbedd93eb	-0.43276915
138	0x3f99281d	1.1965367
139	0x3e8e18a9	0.2775319
140	0x3ee517e4	0.4474479
141	0xbea79f62	-0.32738787
142	0xbf337038	-0.7009311
143	0xbf02b211	-0.5105296
144	0xbddf6cd3	-0.109094284
145	0xbdf5497a	-0.11976905
146	0x3ee072e0	0.43837643
147	0x3d9b9b56	0.07597987
148	0xbe4c3acb	-0.19944303
149	0x3f3b5b7f	0.73186487
150	0x3efd2a90	0.49446535
151	0x3dda119d	0.10647891
152	0x3e03ac02	0.12858585
153	0xbe2bcbe7	-0.16777001
154	0xbd3eb24c	-0.046556756
155	0xbeb1b414	-0.347077
156	0xbe46bcac	-0.1940791
157	0x3c9ee279	0.0193951
158	0x3e08c7e1	0.13357498
159	0xbec7b4aa	-0.39005023
160	0xbe978250	-0.29591608
161	0x3d5e2b73	0.054240655
162	0xbe48ee4b	-0.19622152
163	0xbe1a48f2	-0.15066889
164	0x3db6d2f5	0.089269556
165	0x3f33a1e1	0.7016888
166	0x3ec06358	0.37575793
167	0xbed2b972	-0.4115711
168	0x3d9d3ecb	0.076779924
169	0x3e80ad24	0.25132096
170	0x3f11e480	0.5698929
171	0xbe6c76cd	-0.23092194
172	0xbdd64965	-0.10463218
173	0x3ef26270	0.47340727
174	0x3f07fbdd	0.5311869
175	0x3efc78f8	0.49311042
176	0x3ee7e874	0.45294535
177	0x3eeb902f	0.4600844
178	0x3f07e307	0.5308079
179	0x3ecdc713	0.40190944
180	0x3ef7bed7	0.48387787
181	0x3f0ceaeb	0.55045956
182	0xbdd790a8	-0.10525638
183	0xbddf745a	-0.10910864
184	0x3cd609fe	0.026127812
185	0x3cd841ee	0.026398625
186	0x3db2052b	0.08692392
187	0x3ebe7e5f	0.37205788
188	0xbdad69f0	-0.084674716
189	0x3d345e34	0.04403515
190	0xbd1398b9	-0.03603432
191	0xbdd10382	-0.10205747
192	0xbe0d66e7	-0.13808785
193	0xbeb0919b	-0.34486088
194	0x3ed9724a	0.42470008
195	0xbf4821cd	-0.78176576
196	0x3f03696c	0.51332736
197	0x3e294bca	0.16532817
198	0x3ead9bce	0.33907932
199	0x3f208858	0.62708044
200	0x3f3b2d68	0.7311616
201	0x3bc09f5e	0.005878373
202	0x3e24bbe6	0.16087303
203	0x3dfbcd36	0.12295
204	0xbe8001ea	-0.2500146
205	0xbe391cc1	-0.18077375
206	0xbdd95f27	-0.10613852
207	0x3d956693	0.07294955
208	0xbe22e664	-0.159082
209	0xbdfd06e4	-0.1235483
210	0xbd72b936	-0.059258662
211	0xbd22938c	-0.039691493
212	0x3f104521	0.5635548
213	0xbd36cdb4	-0.044629768
214	0x3f1d74bb	0.6150624
215	0xbd535a9f	-0.051600095
216	0x3ecd37d5	0.4008166
217	0xbda2b139	-0.07943959
218	0xbe4c8190	-0.19971299
219	0x3f02af5d	0.51048833
220	0x3ea5549c	0.32291114
221	0x3eddd706	0.43328112
222	0xbe98f31d	-0.2987298
223	0x3d959922	0.073045984
224	0x3ec2f0bf	0.380743
225	0x3efa4b88	0.4888575
226	0x3ee9340b	0.45547518
227	0xbdac4360	-0.08411288
228	0x3e9e6d50	0.30942774
229	0x3f50fca2	0.8163549
230	0xbce5a3f2	-0.028032277
231	0x3ef5f747	0.4804022
232	0xbdd7030b	-0.10498627
233	0x3f1af9fc	0.60537696
234	0xbde6955c	-0.11258957
235	0xbdcfa52c	-0.10138926
236	0xbe26950a	-0.16267791
237	0x3f16ceb3	0.5890915
238	0xbe6dddd0	-0.23229146
239	0x3e8782a6	0.26466864
240	0x3e1af503	0.15132527
241	0xbe592592	-0.21205738
242	0xbe5c8b51	-0.2153752
243	0x3e8272d2	0.25478226
244	0xbe1369d6	-0.14395842
245	0x3e60874c	0.21926612
246	0xbdc4e274	-0.09613505
247	0xbdf450a7	-0.11929446
248	0xbdf2db62	-0.1185825
249	0x3d3eb980	0.046563625
250	0xbdecf29b	-0.11569711
251	0xbe26cc16	-0.1628879
252	0xbe9059c8	-0.28193498
253	0x3ef27455	0.4735438
254	0x3ea06011	0.31323293
255	0xbe7663cf	-0.24061511

l1.bias f4 [8]
0	0x3f472df5	0.778045
1	0x3f2acbec	0.6671741
2	0x3f423a71	0.75870425
3	0x3f480bfe	0.781433
4	0x3f27aa54	0.65494275
5	0x3f3dadf8	0.7409358
6	0x3f37a060	0.7172909
7	0x3f2b85f0	0.6700125

l2.weight f4 [8, 8]
0	0x3f7d50c6	0.98951375
1	0x3e07c606	0.13259134
2	0xbe96af97	-0.2943084
3	0x3f61c31c	0.8818834
4	0x3eb77c8b	0.35837206
5	0x3f94a019	1.1611358
6	0x3d80eb46	0.06294875
7	0xbf04f197	-0.51931137
8	0x3f988553	1.1915687
9	0xbf064332	-0.5244628
10	0xbde5150b	-0.11185654
11	0x3f773b54	0.965749
12	0x3f92de25	1.1474043
13	0xbf0236aa	-0.5086466
14	0x3e6416e7	0.22274362
15	0x3f8622d0	1.0479374
16	0xbf88f752	-1.0700476
17	0x3f8844ab	1.0645956
18	0x3f4988ce	0.7872437
19	0xbdb70289	-0.089360304
20	0x3dc0fe28	0.094234765
21	0x3f1c5b67	0.6107697
22	0x3f4618b9	0.77381474
23	0x3eccd1c2	0.40003783
24	0x3f3994fe	0.7249297
25	0xbf2b494b	-0.6690871
26	0xbf55ad0c	-0.83467174
27	0x3fa12a93	1.2591118
28	0xbf79092d	-0.97279626
29	0x3f0d89bc	0.5528829
30	0x3e8907ca	0.26763755
31	0x3f8bba20	1.0916176
32	0xbe825152	-0.25452667
33	0x3f4e578b	0.8060233
34	0x3fd82798	1.6887083
35	0xbe294a20	-0.16532183
36	0x3f93e4f8	1.1554251
37	0xbf71a397	-0.94390243
38	0x3cc59dff	0.02412319
39	0xbca43f25	-0.02004964
40	0xbf8487c7	-1.0353936
41	0xbe7d893b	-0.2475938
42	0xbf2233ec	-0.63360476
43	0x3e56225f	0.20911549
44	0x3d85a4fc	0.06525609
45	0x3e951249	0.29115513
46	0x3f95b028	1.1694384
47	0x3f556d6a	0.8337008
48	0x3e939397	0.2882354
49	0xbcd14540	-0.025545716
50	0xbea9f52b	-0.3319486
51	0xbd308048	-0.04309109
52	0xbe7b6cc2	-0.24553207
53	0xbeb354b1	-0.35025552
54	0x3e14b79d	0.14523168
55	0xbe8eed99	-0.27915648
56	0x3f26868f	0.6504907
57	0x3f144ad5	0.57926685
58	0xbeb6db2d	-0.35714093
59	0x3f80653f	1.0030898
60	0x3f1ca630	0.6119108
61	0xbee07f73	-0.43847236
62	0x3f46d36c	0.77666354
63	0xbf84f729	-1.0387927

l2.bias f4 [8]
0	0x3ee60bc2	0.44930845
1	0x3dab806b	0.08374103
2	0x3f0282b2	0.50980675
3	0x3f4248d3	0.7589237
4	0x3f03b75e	0.5145167
5	0x3e41471b	0.18874781
6	0xbe7949ca	-0.24344555
7	0xbdf58342	-0.11987926

l3.weight f4 [7, 8]
0	0x3f5a55c6	0.8528713
1	0xbfad8854	-1.3557229
2	0xbef5a5cc	-0.47978055
3	0x3f0485ca	0.51766646
4	0xbf14ae0a	-0.5807806
5	0xbf44dd71	-0.7690039
6	0xbbb451c8	-0.005502913
7	0xbfbd4957	-1.4788007
8	0xbeca494b	-0.39509043
9	0x3f0ca826	0.54944074
10	0xbfb59155	-1.4184977
11	0xbeef4273	-0.46730384
12	0x3e1f9947	0.15585814
13	0xbf350180	-0.70705414
14	0xbe30f5ce	-0.17281267
15	0x3f2825a5	0.6568244
16	0x3e298671	0.16555192
17	0xbebc2335	-0.3674561
18	0x3ec52393	0.38503703
19	0xbf9e9955	-1.2390543
20	0x3e9839ce	0.297316
21	0xbfa73aa6	-1.3064773
22	0x3ea95adb	0.3307713
23	0x3e73b88e	0.23800871
24	0xbea4940d	-0.32144204
25	0x3f4bc6f0	0.7960043
26	0xbf99ab0f	-1.2005328
27	0x3f4b5d5e	0.7943934
28	0xbfc07bfa	-1.5037835
29	0xbe90a5ac	-0.28251398
30	0xbd84de64	-0.0648773
31	0xbf10ac42	-0.56512845
32	0xbef55936	-0.47919625
33	0xbfa0b6c4	-1.2555776
34	0x3f1dfc75	0.61713344
35	0x3e29fe79	0.1660098
36	0xbf4eb746	-0.80748403
37	0x3deec6f7	0.11659043
38	0xbdcfb8de	-0.101426825
39	0x3f1d6903	0.6148836
40	0xbf981b5c	-1.188335
41	0x3ec9d758	0.39422107
42	0x3ef87164	0.4852401
43	0xbd4d56c6	-0.05013158
44	0xbe906974	-0.28205454
45	0x3f0ca559	0.549398
46	0xbda69260	-0.081333876
47	0xbfaa0e4d	-1.3285614
48	0xbfd0863e	-1.6290967
49	0xbfee77a2	-1.8630259
50	0x3f5278a6	0.82215345
51	0xbf1783a5	-0.5918525
52	0x3f7ad783	0.97985095
53	0xbf831056	-1.023936
54	0xbea577f7	-0.32318088
55	0xbea0e51d	-0.314248

l3.bias f4 [7]
0	0x3e462b8b	0.19352548
1	0xbea55ef5	-0.3229901
2	0x3e0e7841	0.1391306
3	0x3c2f76ab	0.010709445
4	0xbef76318	-0.4831779
5	0x3b19e1f7	0.0023480633
6	0x3eb0bc58	0.34518695
